model_xray_new.ckpt (torch, 75122 bytes, 14 tensors)

layer1.0.weight f4 [16, 3, 5, 5]
-0.07699078 -0.10918305 -0.09963061 -0.039420858 0.079686165 -0.022140158 0.00017238564 -0.03477222
0.020268064 -0.10242499 0.029249292 0.09866636 -0.07312568 -0.050802957 -0.10898835 -0.0501127
0.066761546 -0.028806541 0.056325782 -0.10690165 0.051708408 -0.027378822 -0.05814169 0.038041826
-0.024360979 0.033987466 0.0028850674 -0.042289168 0.09561337 0.068942726 -0.020582205 -0.056044795
0.011380724 -0.051063426 -0.060217496 -0.036413617 0.044557024 -0.0786353 0.01379361 0.092661284
-0.10646139 0.004542208 0.06314111 -0.044144716 0.003874018 -0.025375903 -0.056880116 0.03233712
-0.043768767 -0.052162487 0.070228375 -0.094013475 -0.05254721 0.023103354 0.03937144 0.102934904
-0.046932034 0.03890586 0.056903787 0.03226578 0.08726669 0.11304385 -0.02667819 0.088431746
0.055266112 -0.08599206 0.023757001 -0.031841256 0.010999235 -0.019749252 0.05556012 0.025915666
0.016713932 0.06673686 0.09520217 0.08495878 -0.08332306 -0.10024881 0.046965677 0.07418098
-0.05391606 0.031681184 -0.006726657 0.090821944 0.041896127 0.053668927 -0.05091609 0.08925108
0.113134116 0.034261294 0.10367387 -0.080351874 0.08578096 0.0068140235 -0.03541012 0.057652317
-0.013205165 0.10151519 -0.015304919 -0.105197445 0.027826661 0.012164052 0.09288948 -0.07617012
0.07660317 -0.029145697 0.07748448 0.038679704 -0.095549874 -0.044780917 0.057163436 -0.0031225889
-0.088402025 -0.017690532 0.043638237 -0.08832454 -0.010868446 0.106938854 0.059163164 0.057374403
-0.027305974 -0.05908006 -0.09148531 -0.07244233 0.0026058336 0.096330896 -0.07409074 -0.020111864
-0.050588068 0.1013371 0.008304082 0.048001695 0.0837129 0.048084944 0.09291898 0.009773458
0.11576537 0.07785144 -0.0065052086 0.0094623035 -0.0848683 0.07244232 -0.110388994 0.000794134
0.014594058 -0.06453591 -0.10934308 0.04006725 0.034556855 0.024301484 0.08506615 0.003151812
-0.033238813 0.031973783 0.03765976 -0.026792504 0.056907143 0.09034025 -0.08600641 0.05934196
0.089966334 -0.10297168 -0.004571331 0.044900775 0.022108277 0.006909151 0.009719964 0.108089566
0.006138246 0.049553253 0.025727268 -0.05021497 0.07335403 0.05010852 -0.013107476 0.12599258
0.035575274 0.04345221 -0.033323262 0.002629163 -0.08782222 0.08486008 0.12382188 0.10255296
-0.07629158 -0.092481606 0.068124965 -0.046703003 -0.008078724 -0.061794102 0.09420339 -0.11257689
-0.08760783 0.055370603 0.00545495 0.07654564 0.075654775 -0.005268914 0.110561535 -0.029651968
-0.043319285 0.08566624 0.07378295 -0.09123404 -0.071726106 -0.04720258 0.0984258 0.07746274
-0.05818466 0.11233572 0.07961007 0.041048694 -0.05193215 -0.033000812 0.05817779 -0.097235315
-0.008285595 -0.051952843 -0.047301132 -0.06340506 -0.018255478 0.03647463 -0.07692788 -0.08896222
-0.039244976 -0.041529417 -0.027135039 -0.03969886 0.00873478 -0.07228842 0.10839108 0.032578427
0.037779357 -0.08874778 -0.0099966815 0.09953353 0.05801436 -0.08336751 -0.0910596 -0.106748715
0.026502114 -0.040064678 0.04994645 -0.099725336 -0.10340908 0.08941386 -0.11052684 0.051058583
-0.06846359 -0.04232272 -0.0713759 -0.07660082 0.019168604 0.108979546 0.06480173 0.023662224
00000000: 58ad 9dbd 5d9b dfbd 220b ccbd c477 21bd
00000010: 8032 a33d 475f b5bc 6bc2 3439 516d 0ebd
00000020: 3609 a63c 31c4 d1bd 369c ef3c 9711 ca3d
00000030: ebc2 95bd c316 50bd 4935 dfbd f942 4dbd
00000040: 47ba 883d b2fb ebbc ddb5 663d 41ef dabd
00000050: 32cc 533d 8d49 e0bc fb25 6ebd bfd1 1b3d
00000060: ad90 c7bc 7136 0b3d 6613 3d3b 6837 2dbd
00000070: f1d0 c33d d831 8d3d 039c a8bc 3a8f 65bd
00000080: 3776 3a3c e227 51bd 9fa6 76bd 7226 15bd
00000090: 6d81 363d 8b0b a1bd 98fe 613c 33c5 bd3d
000000a0: 6e08 dabd cdd6 943b 2050 813d 17d1 34bd
000000b0: 3de3 7d3b 20e1 cfbc 20fb 68bd ee73 043d
000000c0: e146 33bd 55a8 55bd e5d3 8f3d 238a c0bd
000000d0: be3b 57bd 3f43 bd3c f243 213d 89cf d23d
000000e0: ce3b 40bd c05b 1f3d f213 693d 1f29 043d
000000f0: e1b8 b23d 8983 e73d 388c dabc b41b b53d
00000100: b85e 623d 9b1c b0bd 0b9e c23c fa6b 02bd
00000110: 2336 343c 2fc9 a1bc 0293 633d 174d d43c
00000120: a8eb 883c 56ad 883d 5bf9 c23d defe ad3d
00000130: 48a5 aabd 404f cdbd 155f 403d 33ec 973d
00000140: 16d7 5cbd 21c4 013d 4a6b dcbb db00 ba3d
00000150: 469b 2b3d f3d3 5b3d 648d 50bd 45c9 b63d
00000160: dcb2 e73d 9255 0c3d f752 d43d 868f a4bd
00000170: eead af3d 2c48 df3b 340a 11bd d624 6c3d
00000180: 7a5a 58bc 32e7 cf3d 7cc1 7abc c271 d7bd
00000190: bdf4 e33c bb4b 473c d73c be3d 14ff 9bbd
000001a0: 1fe2 9c3d f5c2 eebc 2fb0 9e3d 9c6e 1e3d
000001b0: a7af c3bd 326c 37bd 3524 6a3d 59a4 4cbb
000001c0: 1f0c b5bd bceb 90bc 02be 323d 7fe3 b4bd
000001d0: 9111 32bc c202 db3d 1355 723d 6c01 6b3d
000001e0: c7b0 dfbc effd 71bd a65c bbbd a55c 94bd
000001f0: a2c6 2a3b 2249 c53d e3bc 97bd a3c1 a4bc
00000200: 6f35 4fbd d389 cf3d d80d 083c 6d9d 443d
00000210: ab71 ab3d b8f4 443d 4e4c be3d db20 203c
00000220: 6516 ed3d 9370 9f3d a529 d5bb c707 1b3c
00000230: 6ecf adbd a45c 943d a013 e2bd 6e2d 503a
00000240: ea1b 6f3c 672b 84bd 44ef dfbd 8f1d 243d
00000250: 7d8b 0d3d e813 c73c 2937 ae3d a18e 4e3b
00000260: 6c25 08bd f1f6 023d 1f41 1a3d f47b dbbc
00000270: 7717 693d 4f04 b93d 2124 b0bd 8e10 733d
00000280: 4540 b83d d1e2 d2bd 1bcb 95bb e0e9 373d
00000290: 6b1c b53c 2966 e23b 7c40 1f3c 105e dd3d
000002a0: 5723 c93b 5af8 4a3d fec1 d23c 36ae 4dbd
000002b0: a33a 963d 973e 4d3d bdc0 56bc 3304 013e
000002c0: 61b7 113d f2fa 313d f97d 08bd 094e 2c3b
000002d0: 23dc b3bd 1fcb ad3d 5396 fd3d 4907 d23d
000002e0: c33e 9cbd ff66 bdbd 1a85 8b3d a64b 3fbd
000002f0: a05c 04bc d01b 7dbd b5ed c03d b68e e6bd
00000300: bc6b b3bd 49cc 623d 70bf b23b f6c3 9c3d
00000310: e4f0 9a3d dba6 acbb 166e e23d afe8 f2bc
00000320: 906f 31bd c871 af3d 841b 973d ead8 babd
00000330: 23e5 92bd 7e57 41bd 7793 c93d c9a4 9e3d
00000340: 0a53 6ebd 4510 e63d 9b0a a33d ad22 283d
00000350: ceb6 54bd dc2b 07bd d64b 6e3d 4f23 c7bd
00000360: 4ec0 07bc 81cc 54bd d5be 41bd 83da 81bd
00000370: 838c 95bc 6c66 153d 5d8c 9dbd d331 b6bd
00000380: 57bf 20bd c01a 2abd 4d4a debc 469b 22bd
00000390: 531c 0f3c f30b 94bd 24fc dd3d f570 053d
000003a0: 87be 1a3d 65c1 b5bd 1fc9 23bc 3cd8 cb3d
000003b0: 77a0 6d3d 96bc aabd 757d babd 129f dabd
000003c0: f61a d93c dc1a 24bd a694 4c3d cc3c ccbd
000003d0: 24c8 d3bd 9d1e b73d e55b e2bd ce22 513d
000003e0: a436 8cbd 975a 2dbd 872d 92bd e4e0 9cbd
000003f0: 7a07 9d3c ab30 df3d c5b6 843d 48d7 c13c

layer1.0.bias f4 [16]
0.029003283 0.05768036 0.04459254 0.011657111 0.051448558 0.09286028 0.048246246 0.08974223
-0.06400271 0.009313703 0.058937535 -0.050046276 -0.12266707 0.067995384 0.08593213 -0.086834975
00000000: 4b98 ed3c 3e42 6c3d aba6 363d 78fd 3e3c
00000010: b9bb 523d 882d be3d db9d 453d c6ca b73d
00000020: da13 83bd 8098 183c 7c68 713d 53fd 4cbd
00000030: df38 fbbd 2a41 8b3d 2ffd af3d 89d6 b1bd

layer1.1.weight f4 [16]
1.0022714 0.98106605 0.98210037 0.969228 0.99595106 1.0130792 0.9952939 0.99692106
0.9986868 1.0000025 1.0119804 0.9913816 0.9969101 0.9936666 0.9821508 1.028476
00000000: 6e4a 803f 2527 7b3f ee6a 7b3f 541f 783f
00000010: a6f6 7e3f 94ac 813f 95cb 7e3f 3836 7f3f
00000020: f0a9 7f3f 1500 803f 9388 813f 2fcb 7d3f
00000030: 8035 7f3f ef60 7e3f 3c6e 7b3f 1aa5 833f

layer1.1.bias f4 [16]
0.011661123 -0.008243997 -0.024972985 -0.0032083567 -0.0039852075 -0.018152954 0.001609512 -0.00620688
-0.008965123 -0.022268308 -0.0049908888 -0.0012728128 -0.012707163 -0.018873181 -0.013843371 0.017470406
00000000: 4b0e 3f3c d411 07bc 2594 ccbc 4b43 52bb
00000010: 5896 82bb 81b5 94bc 43f6 d23a 1563 cbbb
00000020: 74e2 12bc 076c b6bc 9c8a a3bb 83d4 a6ba
00000030: b431 50bc ee9b 9abc 4ecf 62bc 191e 8f3c

layer1.1.running_mean f4 [16]
0.0037165903 0.42346618 0.3543927 -0.24742812 0.04826022 0.095240004 0.021048138 -0.03294422
-0.054086715 0.8616101 0.18433696 -0.34252647 -0.09832902 0.38826764 0.49306476 -0.0840054
00000000: 0a92 733b 8fd0 d83e f672 b53e cc5d 7dbe
00000010: 82ac 453d 310d c33d 256d ac3c 85f0 06bd
00000020: 088a 5dbd 7b92 5c3f d4c2 3c3e a15f afbe
00000030: ba60 c9bd 04cb c63e fc72 fc3e 060b acbd

layer1.1.running_var f4 [16]
0.0022602014 0.03389589 0.02550321 0.02379383 0.0051235575 0.0022659416 0.0072015217 0.006446138
0.0104631735 0.14563078 0.0067824656 0.021269253 0.012646814 0.026097272 0.038299706 0.0023711596
00000000: e31f 143b 6bd6 0a3d 1cec d03c 47eb c23c
00000010: 84e3 a73b 3180 143b befa eb3b 203a d33b
00000020: bb6d 2b3c 3c20 153e 723f de3b db3c ae3c
00000030: 9534 4f3c f2c9 d53c 27e0 1c3d 7565 1b3b

layer2.0.weight f4 [32, 16, 5, 5]
0.050467007 0.0027819024 0.00037259806 -0.0471464 0.03223731 -0.0019209884 0.030834973 -0.024808848
-0.04049372 -0.03143336 -0.030059796 0.035824504 -0.03863257 -0.015156136 0.031203689 0.017787185
0.020570803 -0.063130155 0.023680432 0.021110866 -0.002725958 0.036518328 -0.001699324 -0.008673776
-0.0009923244 -0.008016604 0.02047976 -0.025411813 -0.019228233 1.124655e-05 -0.017437592 -0.04375047
-0.05001037 -0.0055122413 0.01004262 0.026318958 0.055853546 -0.026431965 -0.042304505 0.039244987
0.037237875 -0.016420932 0.024627905 -0.03530178 -0.03791628 0.055447962 0.0063774334 0.010472893
0.033374626 -0.0022401793 -0.0042908196 0.02584921 -0.04227427 -0.013085963 -0.010806369 -0.06355311
0.014251971 -0.051280618 0.0307262 -0.033359088 0.046569273 0.04656881 0.023047337 -0.0056011425
0.01280277 0.021057576 0.023438709 -0.013396291 0.04584388 -0.01078171 -0.0058386247 -0.013667306
-0.0046534827 0.03869814 0.047083423 -0.004248557 -0.014495311 0.0281061 0.044883087 -0.039249882
0.047607016 -0.024528949 0.035825305 -0.030343099 -0.036557928 -0.013875329 -0.05247006 -0.008107026
0.040624816 0.034066383 -0.06970519 -0.016326275 -0.03350798 0.010899367 0.008268024 -0.02753735
0.016564036 0.027930554 -0.005013069 0.003540501 0.003754401 0.050678007 0.040139105 -0.047836907
0.01938129 -0.0029147486 0.00011787881 -0.04587644 -0.03626618 -0.008476253 -0.007519928 -0.04451642
0.028209774 -0.0037100564 0.0030084704 0.025265548 -0.017155897 -0.0559175 0.040236413 0.037365347
0.046555128 0.024498632 -0.012145594 0.045985162 -0.015546473 -0.05042238 -0.0066902917 -0.009679916
0.059788566 0.012078222 -0.009609332 0.02246915 -0.002746842 -0.006827266 0.004843511 0.019709395
0.021729084 -0.00652729 -0.061027516 -0.016050307 0.0077362545 -0.07094347 -0.033560347 -0.012289791
-0.017606983 0.041961443 0.022837156 -0.020717518 0.017557845 0.041278988 0.043163225 -0.020545257
0.044603687 0.011491804 0.030043757 -0.021804882 0.025098408 0.013587466 0.014142655 -0.003080114
-0.021795742 0.024709884 0.03502597 -0.005005888 0.027851155 0.033801943 0.002867862 0.013906208
-0.00926878 0.011268077 -0.041057233 0.044379387 0.009190064 -0.040875904 -0.041287493 -0.003756696
-0.0229196 0.0020468011 -0.031309757 -0.009994267 0.00032616127 0.01450687 0.0011147223 -0.022656113
-0.022916306 -0.04489962 -0.053028565 -0.014069437 0.041552246 -0.017065343 -0.004027871 -0.031954963
0.035026528 0.006780183 -0.030066377 -0.018794945 -0.058187325 0.04505458 0.013164896 0.026879333
-0.01695553 0.02789583 0.0032191952 0.035867974 0.011986189 -0.031804897 0.030229637 0.02038124
0.05765371 0.010292075 0.0033505422 0.015397264 -0.00041604112 -0.04793753 -0.047048353 0.0012486744
0.04260996 0.0016451953 -0.019247884 -0.028588409 -0.044473514 0.0045293244 0.04554383 0.036051296
-0.012782106 -0.048042126 -0.067952886 0.04077312 0.011310449 -0.020845966 0.012016319 0.032982755
-0.002856997 -0.03396829 -0.029473316 0.054900836 -0.01618728 0.009901941 0.015050477 -0.030904787
0.036973536 -0.011829817 -0.024279406 0.05428318 -0.0307709 -0.0039988924 -0.040615316 0.0029543487
0.059658535 0.057854835 0.005603829 -0.03927424 -0.025342366 0.04040501 0.012878253 0.023198875
00000000: 7eb6 4e3d 9450 363b 4459 c339 951c 41bd
00000010: 450b 043d adc9 fbba a099 fc3c ed3b cbbc
00000020: bedc 25bd 44c0 00bd f63f f6bc b7bc 123d
00000030: 303d 1ebd 7151 78bc e19e ff3c 6eb6 913c
00000040: 1a84 a83c 624a 81bd 77fd c13c b2f0 ac3c
00000050: fca5 32bb 3e94 153d dabb deba 741c 0ebc
00000060: e210 82ba 1358 03bc 2bc5 a73c 6f2c d0bc
00000070: 8784 9dbc 90af 3c37 48d9 8ebc b133 33bd
00000080: acd7 4cbd 08a0 b4bb cd89 243c db9a d73c
00000090: b0c6 643d d987 d8bc 7d47 2dbd 5abf 203d
000000a0: be86 183d 3185 86bc 76c0 c93c 9998 10bd
000000b0: 1a4e 1bbd 671d 633d caf9 d03b 7f96 2b3c
000000c0: d5b3 083d f9cf 12bb 019a 8cbb b9c1 d33c
000000d0: c927 2dbd 8266 56bc 320d 31bc 2228 82bd
000000e0: 1981 693c a00b 52bd 83b5 fb3c 8aa3 08bd
000000f0: 6cbf 3e3d f0be 3e3d c5cd bc3c ca89 b7bb
00000100: b6c2 513c f080 ac3c 8902 c03c 1e7c 5bbc
00000110: cbc6 3b3d c5a5 30bc ef51 bfbb d6ec 5fbc
00000120: 3e7c 98bb f181 1e3d 8cda 403d 7b37 8bbb
00000130: be7d 6dbc c43e e63c 54d7 373d 7cc4 20bd
00000140: 93ff 423d eff0 c8bc 8ebd 123d 1792 f8bc
00000150: c4bd 15bd 5955 63bc d8ea 56bd 55d3 04bc
00000160: 3566 263d 3189 0b3d 98c1 8ebd aebe 85bc
00000170: aa3f 09bd 4293 323c 9b76 073c 0296 e1bc
00000180: 4db1 873c 9ece e43c ac44 a4bb c007 683b
00000190: 660c 763b be93 4f3d e768 243d a2f0 43bd
000001a0: 83c5 9e3c 5e05 3fbb b435 f738 efe8 3bbd
000001b0: d98b 14bd fbdf 0abc ba69 f6bb da56 36bd
000001c0: 2f18 e73c 6b24 73bb c229 453b b2f9 ce3c
000001d0: 868a 8cbc c009 65bd f0ce 243d 680c 193d
000001e0: 97b0 3e3d 5bb1 c83c 50fe 46bc f05a 3c3d
000001f0: a2b6 7ebc b387 4ebd 3c3a dbbb 8398 1ebc
00000200: dbe4 743d bce3 453c 7670 1dbc 3911 b83c
00000210: 5d04 34bb 42b7 dfbb 51b6 9e3b 9975 a13c
00000220: 3101 b23c e1e2 d5bb fdf7 79bd ef7b 83bc
00000230: 6880 fd3b cf4a 91bd 9376 09bd 1f5b 49bc
00000240: 853c 90bc c3df 2b3d fd14 bb3c c9b7 a9bc
00000250: 78d5 8f3c 2814 293d eccb 303d 874e a8bc
00000260: 5bb2 363d 1f48 3c3c 531e f63c 27a0 b2bc
00000270: 2d9b cd3c f79d 5e3c 98b6 673c bddb 49bb
00000280: fc8c b2bc 626c ca3c 6477 0f3d 6f08 a4bb
00000290: 1b28 e43c e873 0a3d bdf2 3b3b ddd6 633c
000002a0: 15dc 17bc be9d 383c a12b 28bd 29c7 353d
000002b0: ec91 163c 7e6d 27bd 131d 29bd e632 76bb
000002c0: e3c1 bbbc a023 063b a93e 00bd febe 23bc
000002d0: a000 ab39 39ae 6d3c e01b 923a 5099 b9bc
000002e0: faba bbbc aae8 37bd 7b34 59bd 7f83 66bc
000002f0: b032 2a3d 9ecc 8bbc 3bfc 83bb 35e3 02bd
00000300: fa77 0f3d 4c2c de3b c34d f6bc dbf7 99bc
00000310: d555 6ebd 278b 383d 93b1 573c 0c32 dc3c
00000320: 53e6 8abc cc85 e43c 22f9 523b 4cea 123d
00000330: b861 443c da45 02bd 25a4 f73c 8ff6 a63c
00000340: 4c26 6c3d 17a0 283c c594 5b3b ce44 7c3c
00000350: 1820 dab9 255a 44bd c6b5 40bd 8faa a33a
00000360: c887 2e3d 98a3 d73a bdad 9dbc 3d32 eabc
00000370: dc29 36bd ba6a 943b 2b8c 3a3d 86aa 133d
00000380: 0a6c 51bc d2c7 44bd e22a 8bbd b701 273d
00000390: 764f 393c 29c5 aabc 18e0 443c ed18 073d
000003a0: 753c 3bbb 5522 0bbd 0672 f1bc b3df 603d
000003b0: 309b 84bc c03b 223c 4796 763c 092c fdbc
000003c0: 9071 173d d9d1 41bc 9be5 c6bc 0a58 5e3d
000003d0: 4113 fcbc 2409 83bb 3f5c 26bd bf9d 413b
000003e0: 825c 743d 31f9 6c3d 53a0 b73b 07de 20bd
000003f0: cb9a cfbc b97f 253d 4fff 523c 910b be3c

layer2.0.bias f4 [32]
-0.0051032538 0.03709575 -0.027338887 0.03041389 -0.02700776 -0.012718101 0.008999152 -0.031032702
-0.01288676 -0.031157818 0.021840675 -0.039527424 -0.02944041 -0.010067554 0.012553728 0.03635693
-0.006660082 -0.03555095 -0.023599628 0.044927362 -0.025175693 -0.0074806614 -0.014075957 0.033263233
0.021867488 0.031399265 0.010403127 0.016174821 -0.027759783 0.01993919 0.044250797 -0.011021587
00000000: 3239 a7bb b7f1 173d cdf5 dfbc 8d26 f93c
00000010: 613f ddbc 955f 50bc 2e71 133c 4b38 febc
00000020: fd22 53bc ae3e ffbc 37eb b23c 82e7 21bd
00000030: 042d f1bc 62f2 24bc 27ae 4d3c 01eb 143d
00000040: d13c dabb df9d 11bd 0254 c1bc c105 383d
00000050: 413d cebc 5620 f5bb d89e 66bc 073f 083d
00000060: 7223 b33c 849c 003d e171 2a3c 0f81 843c
00000070: 7c68 e3bc 8357 a33c 5340 353d e393 34bc

layer2.1.weight f4 [32]
1.0135413 1.0138452 1.0072968 0.99680877 1.0082533 1.007843 1.0141354 0.9999007
1.0302914 1.0190593 1.0084327 1.0115137 1.0307808 1.0112498 1.013567 1.0067353
1.01731 1.0099623 0.9899775 1.0317843 1.0014089 1.0089954 1.0453678 1.014364
1.0003508 1.0065075 1.0068684 1.01755 1.0183825 1.019021 1.0199943 1.0058286
00000000: b9bb 813f aec5 813f 1aef 803f dc2e 7f3f
00000010: 720e 813f 0001 813f 30cf 813f 7ef9 7f3f
00000020: 97e0 833f 8970 823f 5314 813f 4879 813f
00000030: a0f0 833f a270 813f 90bc 813f b4dc 803f
00000040: 3737 823f 7246 813f 2a6f 7d3f 8211 843f
00000050: 2b2e 803f c326 813f 9dce 853f aed6 813f
00000060: 7f0b 803f 3dd5 803f 10e1 803f 143f 823f
00000070: 5c5a 823f 486f 823f 2c8f 823f febe 803f

layer2.1.bias f4 [32]
-0.002905912 0.0010536276 -0.0015749526 -0.011300129 0.00019570159 -0.0079157315 -0.0011810807 -0.007519642
0.008917856 0.008331524 -0.007814275 0.002094361 -0.005510312 0.00205746 0.0032323266 -0.009083111
0.003577447 -0.0003698563 -0.0057501574 0.002064371 -0.0014366413 -0.007892625 -0.00048316672 -0.0008637852
-0.001517609 -0.0061559686 -0.0029267077 0.0036195847 0.006296614 0.0021117982 3.9749837e-05 0.00022545972
00000000: 1d71 3ebb e019 8a3a a46e ceba 2d24 39bc
00000010: 3f35 4d39 fcb0 01bc 7ece 9aba 5467 f6bb
00000020: 331c 123c f280 083c 7207 00bc 8c41 093b
00000030: d98f b4bb 73d6 063b 71d5 533b 54d1 14bc
00000040: 9a73 6a3b 46e9 c1b9 d16b bcbb 664a 073b
00000050: af4d bcba 1250 01bc 8a51 fdb9 a56f 62ba
00000060: 82ea c6ba 02b8 c9bb 02ce 3fbb 8e36 6d3b
00000070: d453 ce3b 1866 0a3b 10b9 2638 6269 6c39

layer2.1.running_mean f4 [32]
-0.14557093 -0.79795635 -0.26415122 -0.64399666 -0.23366624 -0.91517615 -0.33737215 -0.27648473
-0.6023806 -0.36837363 0.5269708 -0.070502445 -0.5290298 0.42464796 0.10616709 0.11002729
0.22749367 0.6619172 -0.3677466 -0.37747353 0.39235476 0.095701426 -0.30679664 -0.57878643
0.015153993 -0.19484946 -0.2334212 -0.024249526 -0.16930087 -0.51616794 -0.19896907 0.06443124
00000000: 8c10 15be de46 4cbf d43e 87be f7dc 24bf
00000010: 3446 6fbe fc48 6abf 0bbc acbe 688f 8dbe
00000020: 9d35 1abf 789b bcbe 8fe7 063f 9663 90bd
00000030: 7f6e 07bf 756b d93e 226e d93d fd55 e13d
00000040: 1af4 683e 6873 293f 4849 bcbe 3644 c1be
00000050: b9e2 c83e 1cff c33d 7314 9dbe 592b 14bf
00000060: 7448 783c 9e86 47be f805 6fbe f1a6 c6bc
00000070: 355d 2dbe 9523 04bf 8cbe 4bbe 87f4 833d

layer2.1.running_var f4 [32]
0.17235672 0.19059487 0.31612143 0.17540291 0.2448969 0.1425001 0.13909996 0.11338406
0.12197275 0.16470326 0.20643246 0.18815978 0.15580063 0.42455247 0.15826139 0.121653534
0.16738513 0.12436911 0.19389878 0.11377489 0.22675522 0.16058517 0.19361928 0.18552443
0.4051049 0.23335579 0.14382447 0.0946497 0.1018996 0.11364483 0.12725964 0.14393267
00000000: 487e 303e 4d2b 433e abda a13e d29c 333e
00000010: 41c6 7a3e 8ceb 113e 3870 0e3e e735 e83d
00000020: d9cc f93d f9a7 283e 0863 533e f5ac 403e
00000030: 338a 1f3e f15e d93e 460f 223e 7d25 f93d
00000040: 0267 2b3e 3bb5 fe3d 678d 463e cf02 e93d
00000050: 8532 683e 7070 243e 2244 463e 1efa 3d3e
00000060: e969 cf3e d2f4 6e3e b946 133e b4d7 c13d
00000070: bdb0 d03d 9fbe e83d 5a50 023e 1663 133e

fc.weight f4 [2, 1568]
0.029369557 0.002340426 -0.020317197 0.021896333 -0.0046131858 0.01796216 -0.022590483 -0.028993445
-0.0026535327 -0.033982467 -0.0025302586 -0.03025305 0.009345081 -0.0030607868 -0.039777182 0.030301722
0.026886934 -0.007982821 -0.00076295173 -0.006018889 0.019505668 0.0027298583 0.020388342 -0.0076019294
0.03396501 0.016803525 0.0031680423 -0.013893727 -0.004175635 0.011726426 0.0033498777 0.01297211
0.009515276 0.005512499 0.016979663 -0.006850135 0.01967035 0.00046346238 0.03307699 0.034188487
-0.015160336 0.0262963 -0.011843953 0.02403594 -0.010031037 0.010067862 -0.021723337 -0.0030178148
0.014356673 0.013076619 -0.0066963746 -0.002431899 0.021446317 -0.023929803 0.023314271 -0.012525509
0.011465322 -0.03972559 0.006001314 -0.03783148 -0.013076724 0.018163465 -0.02338209 -0.01186481
0.018646793 -0.014835808 0.025926035 -0.015616473 -0.005914051 -0.023354577 -0.010381867 -0.014502925
0.02179926 0.03084187 -0.03298703 0.020900192 0.0028565421 0.0182874 -0.0059590447 -0.014705593
0.0156029435 -0.02361261 -0.023143152 0.0013729996 -0.015120741 0.014379463 0.004237635 -0.021105543
0.0054729152 0.015998207 -0.022011906 -0.013943079 0.009131817 -0.013049813 -0.02181242 -0.016273653
0.015010222 0.01406763 0.006142193 -0.008453553 -0.027659604 -0.020873094 0.017591765 0.003143823
-0.020877466 0.0051231943 -0.0013661566 0.018016418 -0.0025755723 -0.022057602 0.00997147 0.005918989
0.0014321571 -0.024881259 -0.014760841 0.0036133097 0.0055970293 0.0068683145 -0.011178014 0.0028998547
-0.008230133 -0.002491209 -0.031564444 -0.032722615 -0.032968007 -0.022157442 0.020517752 -0.0035263756
-0.009107774 -0.02224805 -0.027222883 -0.017651668 0.007737927 0.0021474743 -0.006772331 0.004694358
0.004882605 0.01580389 0.008136624 -0.024407746 0.0024723858 0.0048921094 0.0017263256 0.019800972
-0.0010836812 -0.023387069 0.027681667 -0.006757265 -0.018248115 -0.006265285 0.0098150885 0.0009995191
-0.015200327 0.013911353 -0.028631119 0.0162907 -0.01931776 -0.015536312 -0.010938905 0.005829017
0.018004263 -0.011951584 -0.007694807 -0.027895944 -0.001870028 -0.008046603 -0.0056559043 0.0025693784
-0.011191563 -0.007237702 -0.011034468 0.017446434 0.017637689 0.0045386385 0.01662035 -0.017080536
-0.020444378 0.014045416 0.002372771 -0.015587512 0.00064059836 -0.021989498 0.0019364752 -0.013787155
-0.015178155 -0.02560444 0.0152574135 -0.02667699 0.005057459 0.019072931 0.012137647 0.016790016
-0.0041991808 -0.012988726 -0.016400779 -0.005854541 0.026203979 -0.0073894216 -0.01707395 -0.03686846
-0.007216764 0.014409978 0.009717154 0.0070012463 -0.023166612 -0.015750105 0.003489974 0.038379263
0.021527942 -0.02355992 -0.014666411 -0.0032943287 -0.0289707 -0.028317763 -0.041624106 -0.020635465
0.012244124 -0.02782823 -0.03609345 -0.01948189 0.007025594 -0.03235499 0.00023946606 0.03845202
-0.028668007 -0.025280766 -0.027835872 0.018113008 -0.015553506 0.0014167095 0.030278979 -0.00024360388
-0.0026076513 0.008911089 0.02080499 -0.025347888 0.010403045 -0.010930338 0.012523667 -0.0031947964
-0.0025994068 -0.0018360539 0.01980373 0.006088153 0.010878437 0.0030911507 0.028299268 -0.03268365
0.01907519 -0.033879813 -0.026557533 -0.014763759 -0.0096724555 -0.007435032 0.0006007049 -0.0048025586
00000000: 6d98 f03c d561 193b 4070 a6bc f05f b33c
00000010: 352a 97bb 6125 933c ad0f b9bc a983 edbc
00000020: e4e6 2dbb 3331 0bbd b2d2 25bb 3fd5 f7bc
00000030: 1c1c 193c 7b97 48bb 66ed 22bd 513b f83c
00000040: fd41 dc3c 61ca 02bc d300 48ba 1a3a c5bb
00000050: 5aca 9f3c 6ce7 323b 7405 a73c 9b19 f9bb
00000060: e51e 0b3d 8ca7 893c ee9e 4f3b 84a2 63bc
00000070: c4d3 88bb 3220 403c 9f89 5b3b f988 543c
00000080: f6e5 1b3c 31a2 b43b ef18 8b3c 1977 e0bb
00000090: b723 a13c defc f239 bd7b 073d 3a09 0c3d
000000a0: 0f63 78bc 576b d73c 240d 42bc 05e7 c43c
000000b0: 3859 24bc adf3 243c 24f5 b1bc 88c6 45bb
000000c0: 4038 6b3c 513f 563c 436d dbbb 7f60 1fbb
000000d0: 30b0 af3c 6f08 c4bc 92fd be3c cb37 4dbc
000000e0: 0cd9 3b3c 4db7 22bd aca6 c43b 2ff5 1abd
000000f0: c13f 56bc 8ccb 943c cc8b bfbc 9f64 42bc
00000100: 29c1 983c e411 73bc d662 d43c 3cdc 7fbc
00000110: a8ca c1bb 1952 bfbc b518 2abc ad9d 6dbc
00000120: 5d94 b23c 17a8 fc3c 681d 07bd e136 ab3c
00000130: d334 3b3b 75cf 953c 1744 c3bb baef 70bc
00000140: 7da3 7f3c 3b6f c1bc b596 bdbc 39f6 b33a
00000150: fcbc 77bc d797 6b3c dcdb 8a3b 88e5 acbc
00000160: 2456 b33b ac0e 833c 5052 b4bc 8371 64bc
00000170: 9e9d 153c e2ce 55bc f6af b2bc 5350 85bc
00000180: 6fed 753c eb7b 663c 7344 c93b c580 0abc
00000190: 6596 e2bc 0dfe aabc 9b1c 903c 9908 4e3b
000001a0: 3807 abbc 78e0 a73b 9c10 b3ba 2b97 933c
000001b0: efca 28bb 25b2 b4bc 605f 233c 14f4 c13b
000001c0: 38b7 bb3a c8d3 cbbc 74d7 71bc 47cd 6c3b
000001d0: 4967 b73b 990f e13b fd23 37bc 7d0b 3e3b
000001e0: aed7 06bc 8d43 23bb b849 01bd 2608 06bd
000001f0: 7609 07bd 8683 b5bc d814 a83c c41a 67bb
00000200: c638 15bc 8b41 b6bc 8602 dfbc 3b9a 90bc
00000210: 708e fd3b a4bc 0c3b 6eea ddbb 21d3 993b
00000220: 42fe 9f3b 2977 813c 794f 053c c1f2 c7bc
00000230: c007 223b fd4d a03b e045 e23a a635 a23c
00000240: 4f0a 8eba 3d96 bfbc aac4 e23c 0c6c ddbb
00000250: 127d 95bc 054d cdbb 77cf 203c 4c02 833a
00000260: cb0a 79bc 72ec 633c cf8b eabc 1374 853c
00000270: 4740 9ebc 048c 7ebc 1839 33bc 5701 bf3b
00000280: ad7d 933c 94d0 43bc b824 fcbb 0986 e4bc
00000290: ba1b f5ba e6d5 03bc 2a55 b9bb 0463 283b
000002a0: d15c 37bc 3f2a edbb eac9 34bc d3eb 8e3c
000002b0: ea7c 903c dcb8 943b 6627 883c 7bec 8bbc
000002c0: f87a a7bc bf1e 663c 7e80 1b3b c462 7fbc
000002d0: d4ed 273a 5223 b4bc 53d1 fd3a 85e3 61bc
000002e0: ccad 78bc 67c0 d1bc 3bfa 793c b489 dabc
000002f0: 0bb9 a53b d63e 9c3c fbdc 463c 378b 893c
00000300: 4899 89bb aace 54bc ed5a 86bc 73d7 bfbb
00000310: baa9 d63c f622 f2bb abde 8bbc 6203 17bd
00000320: 9b7a ecbb d417 6c3c b334 1f3c b66a e53b
00000330: e8c7 bdbc 5d06 81bc 0cb8 643b 9333 1d3d
00000340: 5e5b b03c bc00 c1bc 634b 70bc aae5 57bb
00000350: f653 edbc a7fa e7bc 0a7e 2abd b50b a9bc
00000360: 949b 483c 07f8 e3bc bad6 13bd 7c98 9fbc
00000370: f436 e63b aa86 04bd 2e19 7b39 de7f 1d3d
00000380: 2bd9 eabc 9c19 cfbc 0e08 e4bc bb61 943c
00000390: 22d4 7ebc e2b0 b93a 9f0b f83c eb6f 7fb9
000003a0: 21e5 2abb d1ff 113c 3a6f aa3c 60a6 cfbc
000003b0: 8971 2a3c 2915 33bc 1130 4d3c ca5f 51bb
000003c0: cf5a 2abb bfa7 f0ba 6f3b a23c 217f c73b
000003d0: 793b 323c e794 4a3b ded3 e73c 4adf 05bd
000003e0: 9343 9c3c 8fc5 0abd 2f8f d9bc b2e3 71bc
000003f0: 3879 1ebc 92a1 f3bb a078 1d3a c85e 9dbb

fc.bias f4 [2]
-0.009460387 -0.013910484
00000000: bdff 1abc cce8 63bc
